…
/warning', 'url_str_flag': 'new'}[0m
[32m[2024-12-21 20:31:35] [INFO    ] [warning_fastapi] - topic_list: ['/fire/smoke/warning?烟火预警'][0m
[32m[2024-12-21 20:31:35] [INFO    ] [warning_fastapi] - real_topic_list: [][0m
[32m[2024-12-21 20:31:35] [INFO    ] [warning_fastapi] - del_topic: [][0m
[32m[2024-12-21 20:31:35] [INFO    ] [warning_fastapi] - need to open topic list: ['/fire/smoke/warning?烟火预警'][0m
[32m[2024-12-21 20:31:35] [INFO    ] [SxVideoStreamDetector] - name='UltraliticsDetector' model=YOLO(
  (model): DetectionModel(
    (model): Sequential(
      (0): Conv(
        (conv): Conv2d(3, 48, kernel_size=(3, 3), stride=(2, 2), padding=(1, 1), bias=False)
        (bn): BatchNorm2d(48, eps=0.001, momentum=0.03, affine=True, track_running_stats=True)
        (act): SiLU(inplace=True)
      )
      (1): Conv(
        (conv): Conv2d(48, 96, kernel_size=(3, 3), stride=(2, 2), padding=(1, 1), bias=False)
        (bn): BatchNorm2d(96, eps=0.001, momentum=0.03, affine=True, track_running_stats=True)
        (act): SiLU(inplace=True)
      )
      (2): C2f(
        (cv1): Conv(
          (conv): Conv2d(96, 96, kernel_size=(1, 1), stride=(1, 1), bias=False)
          (bn): BatchNorm2d(96, eps=0.001, momentum=0.03, affine=True, track_running_stats=True)
          (act): SiLU(inplace=True)
        )
        (cv2): Conv(
          (conv): Conv2d(192, 96, kernel_size=(1, 1), stride=(1, 1), bias=False)
          (bn): BatchNorm2d(96, eps=0.001, momentum=0.03, affine=True, track_running_stats=True)
          (act): SiLU(inplace=True)
        )
        (m): ModuleList(
          (0-1): 2 x Bottleneck(
            (cv1): Conv(
              (conv): Conv2d(48, 48, kernel_size=(3, 3), stride=(1, 1), padding=(1, 1), bias=False)
              (bn): BatchNorm2d(48, eps=0.001, momentum=0.03, affine=True, track_running_stats=True)
              (act): SiLU(inplace=True)
            )
            (cv2): Conv(
              (conv): Conv2d(48, 48, kernel_size=(3, 3), stride=(1, 1), padding=(1, 1), bias=False)
              (bn): BatchNorm2d(48, eps=0.001, momentum=0.03, affine=True, track_running_stats=True)
              (act): SiLU(inplace=True)
            )
          )
        )
      )
      (3): Conv(
        (conv): Conv2d(96, 192, kernel_size=(3, 3), stride=(2, 2), padding=(1, 1), bias=False)
        (bn): BatchNorm2d(192, eps=0.001, momentum=0.03, affine=True, track_running_stats=True)
        (act): SiLU(inplace=True)
      )
      (4): C2f(
        (cv1): Conv(
          (conv): Conv2d(192, 192, kernel_size=(1, 1), stride=(1, 1), bias=False)
          (bn): BatchNorm2d(192, eps=0.001, momentum=0.03, affine=True, track_running_stats=True)
          (act): SiLU(inplace=True)
        )
        (cv2): Conv(
          (conv): Conv2d(576, 192, kernel_size=(1, 1), stride=(1, 1), bias=False)
          (bn): BatchNorm2d(192, eps=0.001, momentum=0.03, affine=True, track_running_stats=True)
          (act): SiLU(inplace=True)
        )
        (m): ModuleList(
          (0-3): 4 x Bottleneck(
            (cv1): Conv(
              (conv): Conv2d(96, 96, kernel_size=(3, 3), stride=(1, 1), padding=(1, 1), bias=False)
              (bn): BatchNorm2d(96, eps=0.001, momentum=0.03, affine=True, track_running_stats=True)
              (act): SiLU(inplace=True)
            )
            (cv2): Conv(
              (conv): Conv2d(96, 96, kernel_size=(3, 3), stride=(1, 1), padding=(1, 1), bias=False)
              (bn): BatchNorm2d(96, eps=0.001, momentum=0.03, affine=True, track_running_stats=True)
              (act): SiLU(inplace=True)
            )
          )
        )
      )
      (5): SCDown(
        (cv1): Conv(
          (conv): Conv2d(192, 384, kernel_size=(1, 1), stride=(1, 1), bias=False)
          (bn): BatchNorm2d(384, eps=0.001, momentum=0.03, affine=True, track_running_stats=True)
          (act): SiLU(inplace=True)
        )
        (cv2): Conv(
          (conv): Conv2d(384, 384, kernel_size=(3, 3), stride=(2, 2), padding=(1, 1), groups=384, bias=False)
          (bn): BatchNorm2d(384, eps=0.001, momentum=0.03, affine=True, track_running_stats=True)
          (act): Identity()
        )
      )
      (6): C2f(
        (cv1): Conv(
          (conv): Conv2d(384, 384, kernel_size=(1, 1), stride=(1, 1), bias=False)
          (bn): BatchNorm2d(384, eps=0.001, momentum=0.03, affine=True, track_running_stats=True)
          (act): SiLU(inplace=True)
        )
        (cv2): Conv(
          (conv): Conv2d(1152, 384, kernel_size=(1, 1), stride=(1, 1), bias=False)
          (bn): BatchNorm2d(384, eps=0.001, momentum=0.03, affine=True, track_running_stats=True)
          (act): SiLU(inplace=True)
        )
        (m): ModuleList(
          (0-3): 4 x Bottleneck(
            (cv1): Conv(
              (conv): Conv2d(192, 192, kernel_size=(3, 3), stride=(1, 1), padding=(1, 1), bias=False)
              (bn): BatchNorm2d(192, eps=0.001, momentum=0.03, affine=True, track_running_stats=True)
              (act): SiLU(inplace=True)
            )
            (cv2): Conv(
              (conv): Conv2d(192, 192, kernel_size=(3, 3), stride=(1, 1), padding=(1, 1), bias=False)
              (bn): BatchNorm2d(192, eps=0.001, momentum=0.03, affine=True, track_running_stats=True)
              (act): SiLU(inplace=True)
            )
          )
        )
      )
      (7): SCDown(
        (cv1): Conv(
          (conv): Conv2d(384, 576, kernel_size=(1, 1), stride=(1, 1), bias=False)
          (bn): BatchNorm2d(576, eps=0.001, momentum=0.03, affine=True, track_running_stats=True)
          (act): SiLU(inplace=True)
        )
        (cv2): Conv(
          (conv): Conv2d(576, 576, kernel_size=(3, 3), stride=(2, 2), padding=(1, 1), groups=576, bias=False)
          (bn): BatchNorm2d(576, eps=0.001, momentum=0.03, affine=True, track_running_stats=True)
          (act): Identity()
        )
      )
      (8): C2fCIB(
        (cv1): Conv(
          (conv): Conv2d(576, 576, kernel_size=(1, 1), stride=(1, 1), bias=False)
          (bn): BatchNorm2d(576, eps=0.001, momentum=0.03, affine=True, track_running_stats=True)
          (act): SiLU(inplace=True)
        )
        (cv2): Conv(
          (conv): Conv2d(1152, 576, kernel_size=(1, 1), stride=(1, 1), bias=False)
          (bn): BatchNorm2d(576, eps=0.001, momentum=0.03, affine=True, track_running_stats=True)
          (act): SiLU(inplace=True)
        )
        (m): ModuleList(
          (0-1): 2 x CIB(
            (cv1): Sequential(
              (0): Conv(
                (conv): Conv2d(288, 288, kernel_size=(3, 3), stride=(1, 1), padding=(1, 1), groups=288, bias=False)
                (bn): BatchNorm2d(288, eps=0.001, momentum=0.03, affine=True, track_running_stats=True)
                (act): SiLU(inplace=True)
              )
              (1): Conv(
                (conv): Conv2d(288, 576, kernel_size=(1, 1), stride=(1, 1), bias=False)
                (bn): BatchNorm2d(576, eps=0.001, momentum=0.03, affine=True, track_running_stats=True)
                (act): SiLU(inplace=True)
              )
              (2): Conv(
                (conv): Conv2d(576, 576, kernel_size=(3, 3), stride=(1, 1), padding=(1, 1), groups=576, bias=False)
                (bn): BatchNorm2d(576, eps=0.001, momentum=0.03, affine=True, track_running_stats=True)
                (act): SiLU(inplace=True)
              )
              (3): Conv(
                (conv): Conv2d(576, 288, kernel_size=(1, 1), stride=(1, 1), bias=False)
                (bn): BatchNorm2d(288, eps=0.001, momentum=0.03, affine=True, track_running_stats=True)
                (act): SiLU(inplace=True)
              )
              (4): Conv(
                (conv): Conv2d(288, 288, kernel_size=(3, 3), stride=(1, 1), padding=(1, 1), groups=288, bias=False)
                (bn): BatchNorm2d(288, eps=0.001, momentum=0.03, affine=True, track_running_stats=True)
                (act): SiLU(inplace=True)
              )
            )
          )
        )
      )
      (9): SPPF(
        (cv1): Conv(
          (conv): Conv2d(576, 288, kernel_size=(1, 1), stride=(1, 1), bias=False)
          (bn): BatchNorm2d(288, eps=0.001, momentum=0.03, affine=True, track_running_stats=True)
          (act): SiLU(inplace=True)
        )
        (cv2): Conv(
          (conv): Conv2d(1152, 576, kernel_size=(1, 1), stride=(1, 1), bias=False)
          (bn): BatchNorm2d(576, eps=0.001, momentum=0.03, affine=True, track_running_stats=True)
          (act): SiLU(inplace=True)
        )
        (m): MaxPool2d(kernel_size=5, stride=1, padding=2, dilation=1, ceil_mode=False)
      )
      (10): PSA(
        (cv1): Conv(
          (conv): Conv2d(576, 576, kernel_size=(1, 1), stride=(1, 1), bias=False)
          (bn): BatchNorm2d(576, eps=0.001, momentum=0.03, affine=True, track_running_stats=True)
          (act): SiLU(inplace=True)
        )
        (cv2): Conv(
          (conv): Conv2d(576, 576, kernel_size=(1, 1), stride=(1, 1), bias=False)
          (bn): BatchNorm2d(576, eps=0.001, momentum=0.03, affine=True, track_running_stats=True)
          (act): SiLU(inplace=True)
        )
        (attn): Attention(
          (qkv): Conv(
            (conv): Conv2d(288, 576, kernel_size=(1, 1), stride=(1, 1), bias=False)
            (bn): BatchNorm2d(576, eps=0.001, momentum=0.03, affine=True, track_running_stats=True)
            (act): Identity()
          )
          (proj): Conv(
            (conv): Conv2d(288, 288, kernel_size=(1, 1), stride=(1, 1), bias=False)
            (bn): BatchNorm2d(288, eps=0.001, momentum=0.03, affine=True, track_running_stats=True)
            (act): Identity()
          )
          (pe): Conv(
            (conv): Conv2d(288, 288, kernel_size=(3, 3), stride=(1, 1), padding=(1, 1), groups=288, bias=False)
            (bn): BatchNorm2d(288, eps=0.001, momentum=0.03, affine=True, track_running_stats=True)
            (act): Identity()
          )
        )
        (ffn): Sequential(
          (0): Conv(
            (conv): Conv2d(288, 576, kernel_size=(1, 1), stride=(1, 1), bias=False)
            (bn): BatchNorm2d(576, eps=0.001, momentum=0.03, affine=True, track_running_stats=True)
            (act): SiLU(inplace=True)
          )
          (1): Conv(
            (conv): Conv2d(576, 288, kernel_size=(1, 1), stride=(1, 1), bias=False)
            (bn): BatchNorm2d(288, eps=0.001, momentum=0.03, affine=True, track_running_stats=True)
            (act): Identity()
          )
        )
      )
      (11): Upsample(scale_factor=2.0, mode='nearest')
      (12): Concat()
      (13): C2f(
        (cv1): Conv(
          (conv): Conv2d(960, 384, kernel_size=(1, 1), stride=(1, 1), bias=False)
          (bn): BatchNorm2d(384, eps=0.001, momentum=0.03, affine=True, track_running_stats=True)
          (act): SiLU(inplace=True)
        )
        (cv2): Conv(
          (conv): Conv2d(768, 384, kernel_size=(1, 1), stride=(1, 1), bias=False)
          (bn): BatchNorm2d(384, eps=0.001, momentum=0.03, affine=True, track_running_stats=True)
          (act): SiLU(inplace=True)
        )
        (m): ModuleList(
          (0-1): 2 x Bottleneck(
            (cv1): Conv(
              (conv): Conv2d(192, 192, kernel_size=(3, 3), stride=(1, 1), padding=(1, 1), bias=False)
              (bn): BatchNorm2d(192, eps=0.001, momentum=0.03, affine=True, track_running_stats=True)
              (act): SiLU(inplace=True)
            )
            (cv2): Conv(
              (conv): Conv2d(192, 192, kernel_size=(3, 3), stride=(1, 1), padding=(1, 1), bias=False)
              (bn): BatchNorm2d(192, eps=0.001, momentum=0.03, affine=True, track_running_stats=True)
              (act): SiLU(inplace=True)
            )
          )
        )
      )
      (14): Upsample(scale_factor=2.0, mode='nearest')
      (15): Concat()
      (16): C2f(
        (cv1): Conv(
          (conv): Conv2d(576, 192, kernel_size=(1, 1), stride=(1, 1), bias=False)
          (bn): BatchNorm2d(192, eps=0.001, momentum=0.03, affine=True, track_running_stats=True)
          (act): SiLU(inplace=True)
        )
        (cv2): Conv(
          (conv): Conv2d(384, 192, kernel_size=(1, 1), stride=(1, 1), bias=False)
          (bn): BatchNorm2d(192, eps=0.001, momentum=0.03, affine=True, track_running_stats=True)
          (act): SiLU(inplace=True)
        )
        (m): ModuleList(
          (0-1): 2 x Bottleneck(
            (cv1): Conv(
              (conv): Conv2d(96, 96, kernel_size=(3, 3), stride=(1, 1), padding=(1, 1), bias=False)
              (bn): BatchNorm2d(96, eps=0.001, momentum=0.03, affine=True, track_running_stats=True)
              (act): SiLU(inplace=True)
            )
            (cv2): Conv(
              (conv): Conv2d(96, 96, kernel_size=(3, 3), stride=(1, 1), padding=(1, 1), bias=False)
              (bn): BatchNorm2d(96, eps=0.001, momentum=0.03, affine=True, track_running_stats=True)
              (act): SiLU(inplace=True)
            )
          )
        )
      )
      (17): Conv(
        (conv): Conv2d(192, 192, kernel_size=(3, 3), stride=(2, 2), padding=(1, 1), bias=False)
        (bn): BatchNorm2d(192, eps=0.001, momentum=0.03, affine=True, track_running_stats=True)
        (act): SiLU(inplace=True)
      )
      (18): Concat()
      (19): C2fCIB(
        (cv1): Conv(
          (conv): Conv2d(576, 384, kernel_size=(1, 1), stride=(1, 1), bias=False)
          (bn): BatchNorm2d(384, eps=0.001, momentum=0.03, affine=True, track_running_stats=True)
          (act): SiLU(inplace=True)
        )
        (cv2): Conv(
          (conv): Conv2d(768, 384, kernel_size=(1, 1), stride=(1, 1), bias=False)
          (bn): BatchNorm2d(384, eps=0.001, momentum=0.03, affine=True, track_running_stats=True)
          (act): SiLU(inplace=True)
        )
        (m): ModuleList(
          (0-1): 2 x CIB(
            (cv1): Sequential(
              (0): Conv(
                (conv): Conv2d(192, 192, kernel_size=(3, 3), stride=(1, 1), padding=(1, 1), groups=192, bias=False)
                (bn): BatchNorm2d(192, eps=0.001, momentum=0.03, affine=True, track_running_stats=True)
                (act): SiLU(inplace=True)
              )
              (1): Conv(
                (conv): Conv2d(192, 384, kernel_size=(1, 1), stride=(1, 1), bias=False)
                (bn): BatchNorm2d(384, eps=0.001, momentum=0.03, affine=True, track_running_stats=True)
                (act): SiLU(inplace=True)
              )
              (2): Conv(
                (conv): Conv2d(384, 384, kernel_size=(3, 3), stride=(1, 1), padding=(1, 1), groups=384, bias=False)
                (bn): BatchNorm2d(384, eps=0.001, momentum=0.03, affine=True, track_running_stats=True)
                (act): SiLU(inplace=True)
              )
              (3): Conv(
                (conv): Conv2d(384, 192, kernel_size=(1, 1), stride=(1, 1), bias=False)
                (bn): BatchNorm2d(192, eps=0.001, momentum=0.03, affine=True, track_running_stats=True)
                (act): SiLU(inplace=True)
              )
              (4): Conv(
                (conv): Conv2d(192, 192, kernel_size=(3, 3), stride=(1, 1), padding=(1, 1), groups=192, bias=False)
                (bn): BatchNorm2d(192, eps=0.001, momentum=0.03, affine=True, track_running_stats=True)
                (act): SiLU(inplace=True)
              )
            )
          )
        )
      )
      (20): SCDown(
        (cv1): Conv(
          (conv): Conv2d(384, 384, kernel_size=(1, 1), stride=(1, 1), bias=False)
          (bn): BatchNorm2d(384, eps=0.001, momentum=0.03, affine=True, track_running_stats=True)
          (act): SiLU(inplace=True)
        )
        (cv2): Conv(
          (conv): Conv2d(384, 384, kernel_size=(3, 3), stride=(2, 2), padding=(1, 1), groups=384, bias=False)
          (bn): BatchNorm2d(384, eps=0.001, momentum=0.03, affine=True, track_running_stats=True)
          (act): Identity()
        )
      )
      (21): Concat()
      (22): C2fCIB(
        (cv1): Conv(
          (conv): Conv2d(960, 576, kernel_size=(1, 1), stride=(1, 1), bias=False)
          (bn): BatchNorm2d(576, eps=0.001, momentum=0.03, affine=True, track_running_stats=True)
          (act): SiLU(inplace=True)
        )
        (cv2): Conv(
          (conv): Conv2d(1152, 576, kernel_size=(1, 1), stride=(1, 1), bias=False)
          (bn): BatchNorm2d(576, eps=0.001, momentum=0.03, affine=True, track_running_stats=True)
          (act): SiLU(inplace=True)
        )
        (m): ModuleList(
          (0-1): 2 x CIB(
            (cv1): Sequential(
              (0): Conv(
                (conv): Conv2d(288, 288, kernel_size=(3, 3), stride=(1, 1), padding=(1, 1), groups=288, bias=False)
                (bn): BatchNorm2d(288, eps=0.001, momentum=0.03, affine=True, track_running_stats=True)
                (act): SiLU(inplace=True)
              )
              (1): Conv(
                (conv): Conv2d(288, 576, kernel_size=(1, 1), stride=(1, 1), bias=False)
                (bn): BatchNorm2d(576, eps=0.001, momentum=0.03, affine=True, track_running_stats=True)
                (act): SiLU(inplace=True)
              )
              (2): Conv(
                (conv): Conv2d(576, 576, kernel_size=(3, 3), stride=(1, 1), padding=(1, 1), groups=576, bias=False)
                (bn): BatchNorm2d(576, eps=0.001, momentum=0.03, affine=True, track_running_stats=True)
                (act): SiLU(inplace=True)
              )
              (3): Conv(
                (conv): Conv2d(576, 288, kernel_size=(1, 1), stride=(1, 1), bias=False)
                (bn): BatchNorm2d(288, eps=0.001, momentum=0.03, affine=True, track_running_stats=True)
                (act): SiLU(inplace=True)
              )
              (4): Conv(
                (conv): Conv2d(288, 288, kernel_size=(3, 3), stride=(1, 1), padding=(1, 1), groups=288, bias=False)
                (bn): BatchNorm2d(288, eps=0.001, momentum=0.03, affine=True, track_running_stats=True)
                (act): SiLU(inplace=True)
              )
            )
          )
        )
      )
      (23): v10Detect(
        (cv2): ModuleList(
          (0): Sequential(
            (0): Conv(
              (conv): Conv2d(192, 64, kernel_size=(3, 3), stride=(1, 1), padding=(1, 1), bias=False)
              (bn): BatchNorm2d(64, eps=0.001, momentum=0.03, affine=True, track_running_stats=True)
              (act): SiLU(inplace=True)
            )
            (1): Conv(
              (conv): Conv2d(64, 64, kernel_size=(3, 3), stride=(1, 1), padding=(1, 1), bias=False)
              (bn): BatchNorm2d(64, eps=0.001, momentum=0.03, affine=True, track_running_stats=True)
              (act): SiLU(inplace=True)
            )
            (2): Conv2d(64, 64, kernel_size=(1, 1), stride=(1, 1))
          )
          (1): Sequential(
            (0): Conv(
              (conv): Conv2d(384, 64, kernel_size=(3, 3), stride=(1, 1), padding=(1, 1), bias=False)
              (bn): BatchNorm2d(64, eps=0.001, momentum=0.03, affine=True, track_running_stats=True)
              (act): SiLU(inplace=True)
            )
            (1): Conv(
              (conv): Conv2d(64, 64, kernel_size=(3, 3), stride=(1, 1), padding=(1, 1), bias=False)
              (bn): BatchNorm2d(64, eps=0.001, momentum=0.03, affine=True, track_running_stats=True)
              (act): SiLU(inplace=True)
            )
            (2): Conv2d(64, 64, kernel_size=(1, 1), stride=(1, 1))
          )
          (2): Sequential(
            (0): Conv(
              (conv): Conv2d(576, 64, kernel_size=(3, 3), stride=(1, 1), padding=(1, 1), bias=False)
              (bn): BatchNorm2d(64, eps=0.001, momentum=0.03, affine=True, track_running_stats=True)
              (act): SiLU(inplace=True)
            )
            (1): Conv(
              (conv): Conv2d(64, 64, kernel_size=(3, 3), stride=(1, 1), padding=(1, 1), bias=False)
              (bn): BatchNorm2d(64, eps=0.001, momentum=0.03, affine=True, track_running_stats=True)
              (act): SiLU(inplace=True)
            )
            (2): Conv2d(64, 64, kernel_size=(1, 1), stride=(1, 1))
          )
        )
        (cv3): ModuleList(
          (0): Sequential(
            (0): Sequential(
              (0): Conv(
                (conv): Conv2d(192, 192, kernel_size=(3, 3), stride=(1, 1), padding=(1, 1), groups=192, bias=False)
                (bn): BatchNorm2d(192, eps=0.001, momentum=0.03, affine=True, track_running_stats=True)
                (act): SiLU(inplace=True)
              )
              (1): Conv(
                (conv): Conv2d(192, 192, kernel_size=(1, 1), stride=(1, 1), bias=False)
                (bn): BatchNorm2d(192, eps=0.001, momentum=0.03, affine=True, track_running_stats=True)
                (act): SiLU(inplace=True)
              )
            )
            (1): Sequential(
              (0): Conv(
                (conv): Conv2d(192, 192, kernel_size=(3, 3), stride=(1, 1), padding=(1, 1), groups=192, bias=False)
                (bn): BatchNorm2d(192, eps=0.001, momentum=0.03, affine=True, track_running_stats=True)
                (act): SiLU(inplace=True)
              )
              (1): Conv(
                (conv): Conv2d(192, 192, kernel_size=(1, 1), stride=(1, 1), bias=False)
                (bn): BatchNorm2d(192, eps=0.001, momentum=0.03, affine=True, track_running_stats=True)
                (act): SiLU(inplace=True)
              )
            )
            (2): Conv2d(192, 2, kernel_size=(1, 1), stride=(1, 1))
          )
          (1): Sequential(
            (0): Sequential(
              (0): Conv(
                (conv): Conv2d(384, 384, kernel_size=(3, 3), stride=(1, 1), padding=(1, 1), groups=384, bias=False)
                (bn): BatchNorm2d(384, eps=0.001, momentum=0.03, affine=True, track_running_stats=True)
                (act): SiLU(inplace=True)
              )
              (1): Conv(
                (conv): Conv2d(384, 192, kernel_size=(1, 1), stride=(1, 1), bias=False)
                (bn): BatchNorm2d(192, eps=0.001, momentum=0.03, affine=True, track_running_stats=True)
                (act): SiLU(inplace=True)
              )
            )
            (1): Sequential(
              (0): Conv(
                (conv): Conv2d(192, 192, kernel_size=(3, 3), stride=(1, 1), padding=(1, 1), groups=192, bias=False)
                (bn): BatchNorm2d(192, eps=0.001, momentum=0.03, affine=True, track_running_stats=True)
                (act): SiLU(inplace=True)
              )
              (1): Conv(
                (conv): Conv2d(192, 192, kernel_size=(1, 1), stride=(1, 1), bias=False)
                (bn): BatchNorm2d(192, eps=0.001, momentum=0.03, affine=True, track_running_stats=True)
                (act): SiLU(inplace=True)
              )
            )
            (2): Conv2d(192, 2, kernel_size=(1, 1), stride=(1, 1))
          )
          (2): Sequential(
            (0): Sequential(
              (0): Conv(
                (conv): Conv2d(576, 576, kernel_size=(3, 3), stride=(1, 1), padding=(1, 1), groups=576, bias=False)
                (bn): BatchNorm2d(576, eps=0.001, momentum=0.03, affine=True, track_running_stats=True)
                (act): SiLU(inplace=True)
              )
              (1): Conv(
                (conv): Conv2d(576, 192, kernel_size=(1, 1), stride=(1, 1), bias=False)
                (bn): BatchNorm2d(192, eps=0.001, momentum=0.03, affine=True, track_running_stats=True)
                (act): SiLU(inplace=True)
              )
            )
            (1): Sequential(
              (0): Conv(
                (conv): Conv2d(192, 192, kernel_size=(3, 3), stride=(1, 1), padding=(1, 1), groups=192, bias=False)
                (bn): BatchNorm2d(192, eps=0.001, momentum=0.03, affine=True, track_running_stats=True)
                (act): SiLU(inplace=True)
              )
              (1): Conv(
                (conv): Conv2d(192, 192, kernel_size=(1, 1), stride=(1, 1), bias=False)
                (bn): BatchNorm2d(192, eps=0.001, momentum=0.03, affine=True, track_running_stats=True)
                (act): SiLU(inplace=True)
              )
            )
            (2): Conv2d(192, 2, kernel_size=(1, 1), stride=(1, 1))
          )
        )
        (dfl): DFL(
          (conv): Conv2d(16, 1, kernel_size=(1, 1), stride=(1, 1), bias=False)
        )
        (one2one_cv2): ModuleList(
          (0): Sequential(
            (0): Conv(
              (conv): Conv2d(192, 64, kernel_size=(3, 3), stride=(1, 1), padding=(1, 1), bias=False)
              (bn): BatchNorm2d(64, eps=0.001, momentum=0.03, affine=True, track_running_stats=True)
              (act): SiLU(inplace=True)
            )
            (1): Conv(
              (conv): Conv2d(64, 64, kernel_size=(3, 3), stride=(1, 1), padding=(1, 1), bias=False)
              (bn): BatchNorm2d(64, eps=0.001, momentum=0.03, affine=True, track_running_stats=True)
              (act): SiLU(inplace=True)
            )
            (2): Conv2d(64, 64, kernel_size=(1, 1), stride=(1, 1))
          )
          (1): Sequential(
            (0): Conv(
              (conv): Conv2d(384, 64, kernel_size=(3, 3), stride=(1, 1), padding=(1, 1), bias=False)
              (bn): BatchNorm2d(64, eps=0.001, momentum=0.03, affine=True, track_running_stats=True)
              (act): SiLU(inplace=True)
            )
            (1): Conv(
              (conv): Conv2d(64, 64, kernel_size=(3, 3), stride=(1, 1), padding=(1, 1), bias=False)
              (bn): BatchNorm2d(64, eps=0.001, momentum=0.03, affine=True, track_running_stats=True)
              (act): SiLU(inplace=True)
            )
            (2): Conv2d(64, 64, kernel_size=(1, 1), stride=(1, 1))
          )
          (2): Sequential(
            (0): Conv(
              (conv): Conv2d(576, 64, kernel_size=(3, 3), stride=(1, 1), padding=(1, 1), bias=False)
              (bn): BatchNorm2d(64, eps=0.001, momentum=0.03, affine=True, track_running_stats=True)
              (act): SiLU(inplace=True)
            )
            (1): Conv(
              (conv): Conv2d(64, 64, kernel_size=(3, 3), stride=(1, 1), padding=(1, 1), bias=False)
              (bn): BatchNorm2d(64, eps=0.001, momentum=0.03, affine=True, track_running_stats=True)
              (act): SiLU(inplace=True)
            )
            (2): Conv2d(64, 64, kernel_size=(1, 1), stride=(1, 1))
          )
        )
        (one2one_cv3): ModuleList(
          (0): Sequential(
            (0): Sequential(
              (0): Conv(
                (conv): Conv2d(192, 192, kernel_size=(3, 3), stride=(1, 1), padding=(1, 1), groups=192, bias=False)
                (bn): BatchNorm2d(192, eps=0.001, momentum=0.03, affine=True, track_running_stats=True)
                (act): SiLU(inplace=True)
              )
              (1): Conv(
                (conv): Conv2d(192, 192, kernel_size=(1, 1), stride=(1, 1), bias=False)
                (bn): BatchNorm2d(192, eps=0.001, momentum=0.03, affine=True, track_running_stats=True)
                (act): SiLU(inplace=True)
              )
            )
            (1): Sequential(
              (0): Conv(
                (conv): Conv2d(192, 192, kernel_size=(3, 3), stride=(1, 1), padding=(1, 1), groups=192, bias=False)
                (bn): BatchNorm2d(192, eps=0.001, momentum=0.03, affine=True, track_running_stats=True)
                (act): SiLU(inplace=True)
              )
              (1): Conv(
                (conv): Conv2d(192, 192, kernel_size=(1, 1), stride=(1, 1), bias=False)
                (bn): BatchNorm2d(192, eps=0.001, momentum=0.03, affine=True, track_running_stats=True)
                (act): SiLU(inplace=True)
              )
            )
            (2): Conv2d(192, 2, kernel_size=(1, 1), stride=(1, 1))
          )
          (1): Sequential(
            (0): Sequential(
              (0): Conv(
                (conv): Conv2d(384, 384, kernel_size=(3, 3), stride=(1, 1), padding=(1, 1), groups=384, bias=False)
                (bn): BatchNorm2d(384, eps=0.001, momentum=0.03, affine=True, track_running_stats=True)
                (act): SiLU(inplace=True)
              )
              (1): Conv(
                (conv): Conv2d(384, 192, kernel_size=(1, 1), stride=(1, 1), bias=False)
                (bn): BatchNorm2d(192, eps=0.001, momentum=0.03, affine=True, track_running_stats=True)
                (act): SiLU(inplace=True)
              )
            )
            (1): Sequential(
              (0): Conv(
                (conv): Conv2d(192, 192, kernel_size=(3, 3), stride=(1, 1), padding=(1, 1), groups=192, bias=False)
                (bn): BatchNorm2d(192, eps=0.001, momentum=0.03, affine=True, track_running_stats=True)
                (act): SiLU(inplace=True)
              )
              (1): Conv(
                (conv): Conv2d(192, 192, kernel_size=(1, 1), stride=(1, 1), bias=False)
                (bn): BatchNorm2d(192, eps=0.001, momentum=0.03, affine=True, track_running_stats=True)
                (act): SiLU(inplace=True)
              )
            )
            (2): Conv2d(192, 2, kernel_size=(1, 1), stride=(1, 1))
          )
          (2): Sequential(
            (0): Sequential(
              (0): Conv(
                (conv): Conv2d(576, 576, kernel_size=(3, 3), stride=(1, 1), padding=(1, 1), groups=576, bias=False)
                (bn): BatchNorm2d(576, eps=0.001, momentum=0.03, affine=True, track_running_stats=True)
                (act): SiLU(inplace=True)
              )
              (1): Conv(
                (conv): Conv2d(576, 192, kernel_size=(1, 1), stride=(1, 1), bias=False)
                (bn): BatchNorm2d(192, eps=0.001, momentum=0.03, affine=True, track_running_stats=True)
                (act): SiLU(inplace=True)
              )
            )
            (1): Sequential(
              (0): Conv(
                (conv): Conv2d(192, 192, kernel_size=(3, 3), stride=(1, 1), padding=(1, 1), groups=192, bias=False)
                (bn): BatchNorm2d(192, eps=0.001, momentum=0.03, affine=True, track_running_stats=True)
                (act): SiLU(inplace=True)
              )
              (1): Conv(
                (conv): Conv2d(192, 192, kernel_size=(1, 1), stride=(1, 1), bias=False)
                (bn): BatchNorm2d(192, eps=0.001, momentum=0.03, affine=True, track_running_stats=True)
                (act): SiLU(inplace=True)
              )
            )
            (2): Conv2d(192, 2, kernel_size=(1, 1), stride=(1, 1))
          )
        )
      )
    )
  )
) model_path='/work/ai/WHOAMI/whoami/models/detect/fire_smoke_yolov10m_v2_epochs_250.pt' class_list=[0, 1] conf=0.8 logger=<whoami.utils.log.Logger object at 0x7f654b61c910>[0m
INFO:     223.15.163.9:53156 - "POST /fire_smoke_warning HTTP/1.1" 200 OK
[32m[2024-12-21 20:31:35] [INFO    ] [SxVideoStreamDetector] - request_json: {'deviceSn': 'BD3202818', 'channelNo': '1', 'protocol': '2', 'encodeType': 'H264', 'expireTime': '86400'}[0m
…
[32m[2024-12-21 20:31:58] [INFO    ] [warning_fastapi] - topic_list: ['/fire/smoke/warning?烟火预警', '/fallen/falling/warning?跌倒预警'][0m
[32m[2024-12-21 20:31:58] [INFO    ] [warning_fastapi] - real_topic_list: ['/fire/smoke/warning?烟火预警'][0m
[32m[2024-12-21 20:31:58] [INFO    ] [warning_fastapi] - del_topic: [][0m
[32m[2024-12-21 20:31:58] [INFO    ] [warning_fastapi] - need to open topic list: ['/fallen/falling/warning?跌倒预警'][0m
[32m[2024-12-21 20:31:58] [INFO    ] [SxVideoStreamDetector] - name='UltraliticsDetector' model=YOLO(
  (model): DetectionModel(
    (model): Sequential(
      (0): Conv(
        (conv): Conv2d(3, 48, kernel_size=(3, 3), stride=(2, 2), padding=(1, 1))
        (act): SiLU(inplace=True)
      )
      (1): Conv(
        (conv): Conv2d(48, 96, kernel_size=(3, 3), stride=(2, 2), padding=(1, 1))
        (act): SiLU(inplace=True)
      )
      (2): C2f(
        (cv1): Conv(
          (conv): Conv2d(96, 96, kernel_size=(1, 1), stride=(1, 1))
          (act): SiLU(inplace=True)
        )
        (cv2): Conv(
          (conv): Conv2d(192, 96, kernel_size=(1, 1), stride=(1, 1))
          (act): SiLU(inplace=True)
        )
        (m): ModuleList(
          (0-1): 2 x Bottleneck(
            (cv1): Conv(
              (conv): Conv2d(48, 48, kernel_size=(3, 3), stride=(1, 1), padding=(1, 1))
              (act): SiLU(inplace=True)
            )
            (cv2): Conv(
              (conv): Conv2d(48, 48, kernel_size=(3, 3), stride=(1, 1), padding=(1, 1))
              (act): SiLU(inplace=True)
            )
          )
        )
      )
      (3): Conv(
        (conv): Conv2d(96, 192, kernel_size=(3, 3), stride=(2, 2), padding=(1, 1))
        (act): SiLU(inplace=True)
      )
      (4): C2f(
        (cv1): Conv(
          (conv): Conv2d(192, 192, kernel_size=(1, 1), stride=(1, 1))
          (act): SiLU(inplace=True)
        )
        (cv2): Conv(
          (conv): Conv2d(576, 192, kernel_size=(1, 1), stride=(1, 1))
          (act): SiLU(inplace=True)
        )
        (m): ModuleList(
          (0-3): 4 x Bottleneck(
            (cv1): Conv(
              (conv): Conv2d(96, 96, kernel_size=(3, 3), stride=(1, 1), padding=(1, 1))
              (act): SiLU(inplace=True)
            )
            (cv2): Conv(
              (conv): Conv2d(96, 96, kernel_size=(3, 3), stride=(1, 1), padding=(1, 1))
              (act): SiLU(inplace=True)
            )
          )
        )
      )
      (5): SCDown(
        (cv1): Conv(
          (conv): Conv2d(192, 384, kernel_size=(1, 1), stride=(1, 1))
          (act): SiLU(inplace=True)
        )
        (cv2): Conv(
          (conv): Conv2d(384, 384, kernel_size=(3, 3), stride=(2, 2), padding=(1, 1), groups=384)
          (act): Identity()
        )
      )
      (6): C2f(
        (cv1): Conv(
          (conv): Conv2d(384, 384, kernel_size=(1, 1), stride=(1, 1))
          (act): SiLU(inplace=True)
        )
        (cv2): Conv(
          (conv): Conv2d(1152, 384, kernel_size=(1, 1), stride=(1, 1))
          (act): SiLU(inplace=True)
        )
        (m): ModuleList(
          (0-3): 4 x Bottleneck(
            (cv1): Conv(
              (conv): Conv2d(192, 192, kernel_size=(3, 3), stride=(1, 1), padding=(1, 1))
              (act): SiLU(inplace=True)
            )
            (cv2): Conv(
              (conv): Conv2d(192, 192, kernel_size=(3, 3), stride=(1, 1), padding=(1, 1))
              (act): SiLU(inplace=True)
            )
          )
        )
      )
      (7): SCDown(
        (cv1): Conv(
          (conv): Conv2d(384, 576, kernel_size=(1, 1), stride=(1, 1))
          (act): SiLU(inplace=True)
        )
        (cv2): Conv(
          (conv): Conv2d(576, 576, kernel_size=(3, 3), stride=(2, 2), padding=(1, 1), groups=576)
          (act): Identity()
        )
      )
      (8): C2fCIB(
        (cv1): Conv(
          (conv): Conv2d(576, 576, kernel_size=(1, 1), stride=(1, 1))
          (act): SiLU(inplace=True)
        )
        (cv2): Conv(
          (conv): Conv2d(1152, 576, kernel_size=(1, 1), stride=(1, 1))
          (act): SiLU(inplace=True)
        )
        (m): ModuleList(
          (0-1): 2 x CIB(
            (cv1): Sequential(
              (0): Conv(
                (conv): Conv2d(288, 288, kernel_size=(3, 3), stride=(1, 1), padding=(1, 1), groups=288)
                (act): SiLU(inplace=True)
              )
              (1): Conv(
                (conv): Conv2d(288, 576, kernel_size=(1, 1), stride=(1, 1))
                (act): SiLU(inplace=True)
              )
              (2): Conv(
                (conv): Conv2d(576, 576, kernel_size=(3, 3), stride=(1, 1), padding=(1, 1), groups=576)
                (act): SiLU(inplace=True)
              )
              (3): Conv(
                (conv): Conv2d(576, 288, kernel_size=(1, 1), stride=(1, 1))
                (act): SiLU(inplace=True)
              )
              (4): Conv(
                (conv): Conv2d(288, 288, kernel_size=(3, 3), stride=(1, 1), padding=(1, 1), groups=288)
                (act): SiLU(inplace=True)
              )
            )
          )
        )
      )
      (9): SPPF(
        (cv1): Conv(
          (conv): Conv2d(576, 288, kernel_size=(1, 1), stride=(1, 1))
          (act): SiLU(inplace=True)
        )
        (cv2): Conv(
          (conv): Conv2d(1152, 576, kernel_size=(1, 1), stride=(1, 1))
          (act): SiLU(inplace=True)
        )
        (m): MaxPool2d(kernel_size=5, stride=1, padding=2, dilation=1, ceil_mode=False)
      )
      (10): PSA(
        (cv1): Conv(
          (conv): Conv2d(576, 576, kernel_size=(1, 1), stride=(1, 1))
          (act): SiLU(inplace=True)
        )
        (cv2): Conv(
          (conv): Conv2d(576, 576, kernel_size=(1, 1), stride=(1, 1))
          (act): SiLU(inplace=True)
        )
        (attn): Attention(
          (qkv): Conv(
            (conv): Conv2d(288, 576, kernel_size=(1, 1), stride=(1, 1))
            (act): Identity()
          )
          (proj): Conv(
            (conv): Conv2d(288, 288, kernel_size=(1, 1), stride=(1, 1))
            (act): Identity()
          )
          (pe): Conv(
            (conv): Conv2d(288, 288, kernel_size=(3, 3), stride=(1, 1), padding=(1, 1), groups=288)
            (act): Identity()
          )
        )
        (ffn): Sequential(
          (0): Conv(
            (conv): Conv2d(288, 576, kernel_size=(1, 1), stride=(1, 1))
            (act): SiLU(inplace=True)
          )
          (1): Conv(
            (conv): Conv2d(576, 288, kernel_size=(1, 1), stride=(1, 1))
            (act): Identity()
          )
        )
      )
      (11): Upsample(scale_factor=2.0, mode='nearest')
      (12): Concat()
      (13): C2f(
        (cv1): Conv(
          (conv): Conv2d(960, 384, kernel_size=(1, 1), stride=(1, 1))
          (act): SiLU(inplace=True)
        )
        (cv2): Conv(
          (conv): Conv2d(768, 384, kernel_size=(1, 1), stride=(1, 1))
          (act): SiLU(inplace=True)
        )
        (m): ModuleList(
          (0-1): 2 x Bottleneck(
            (cv1): Conv(
              (conv): Conv2d(192, 192, kernel_size=(3, 3), stride=(1, 1), padding=(1, 1))
              (act): SiLU(inplace=True)
            )
            (cv2): Conv(
              (conv): Conv2d(192, 192, kernel_size=(3, 3), stride=(1, 1), padding=(1, 1))
              (act): SiLU(inplace=True)
            )
          )
        )
      )
      (14): Upsample(scale_factor=2.0, mode='nearest')
      (15): Concat()
      (16): C2f(
        (cv1): Conv(
          (conv): Conv2d(576, 192, kernel_size=(1, 1), stride=(1, 1))
          (act): SiLU(inplace=True)
        )
        (cv2): Conv(
          (conv): Conv2d(384, 192, kernel_size=(1, 1), stride=(1, 1))
          (act): SiLU(inplace=True)
        )
        (m): ModuleList(
          (0-1): 2 x Bottleneck(
            (cv1): Conv(
              (conv): Conv2d(96, 96, kernel_size=(3, 3), stride=(1, 1), padding=(1, 1))
              (act): SiLU(inplace=True)
            )
            (cv2): Conv(
              (conv): Conv2d(96, 96, kernel_size=(3, 3), stride=(1, 1), padding=(1, 1))
              (act): SiLU(inplace=True)
            )
          )
        )
      )
      (17): Conv(
        (conv): Conv2d(192, 192, kernel_size=(3, 3), stride=(2, 2), padding=(1, 1))
        (act): SiLU(inplace=True)
      )
      (18): Concat()
      (19): C2fCIB(
        (cv1): Conv(
          (conv): Conv2d(576, 384, kernel_size=(1, 1), stride=(1, 1))
          (act): SiLU(inplace=True)
        )
        (cv2): Conv(
          (conv): Conv2d(768, 384, kernel_size=(1, 1), stride=(1, 1))
          (act): SiLU(inplace=True)
        )
        (m): ModuleList(
          (0-1): 2 x CIB(
            (cv1): Sequential(
              (0): Conv(
                (conv): Conv2d(192, 192, kernel_size=(3, 3), stride=(1, 1), padding=(1, 1), groups=192)
                (act): SiLU(inplace=True)
              )
              (1): Conv(
                (conv): Conv2d(192, 384, kernel_size=(1, 1), stride=(1, 1))
                (act): SiLU(inplace=True)
              )
              (2): Conv(
                (conv): Conv2d(384, 384, kernel_size=(3, 3), stride=(1, 1), padding=(1, 1), groups=384)
                (act): SiLU(inplace=True)
              )
              (3): Conv(
                (conv): Conv2d(384, 192, kernel_size=(1, 1), stride=(1, 1))
                (act): SiLU(inplace=True)
              )
              (4): Conv(
                (conv): Conv2d(192, 192, kernel_size=(3, 3), stride=(1, 1), padding=(1, 1), groups=192)
                (act): SiLU(inplace=True)
              )
            )
          )
        )
      )
      (20): SCDown(
        (cv1): Conv(
          (conv): Conv2d(384, 384, kernel_size=(1, 1), stride=(1, 1))
          (act): SiLU(inplace=True)
        )
        (cv2): Conv(
          (conv): Conv2d(384, 384, kernel_size=(3, 3), stride=(2, 2), padding=(1, 1), groups=384)
          (act): Identity()
        )
      )
      (21): Concat()
      (22): C2fCIB(
        (cv1): Conv(
          (conv): Conv2d(960, 576, kernel_size=(1, 1), stride=(1, 1))
          (act): SiLU(inplace=True)
        )
        (cv2): Conv(
          (conv): Conv2d(1152, 576, kernel_size=(1, 1), stride=(1, 1))
          (act): SiLU(inplace=True)
        )
        (m): ModuleList(
          (0-1): 2 x CIB(
            (cv1): Sequential(
              (0): Conv(
                (conv): Conv2d(288, 288, kernel_size=(3, 3), stride=(1, 1), padding=(1, 1), groups=288)
                (act): SiLU(inplace=True)
              )
              (1): Conv(
                (conv): Conv2d(288, 576, kernel_size=(1, 1), stride=(1, 1))
                (act): SiLU(inplace=True)
              )
              (2): Conv(
                (conv): Conv2d(576, 576, kernel_size=(3, 3), stride=(1, 1), padding=(1, 1), groups=576)
                (act): SiLU(inplace=True)
              )
              (3): Conv(
                (conv): Conv2d(576, 288, kernel_size=(1, 1), stride=(1, 1))
                (act): SiLU(inplace=True)
              )
              (4): Conv(
                (conv): Conv2d(288, 288, kernel_size=(3, 3), stride=(1, 1), padding=(1, 1), groups=288)
                (act): SiLU(inplace=True)
              )
            )
          )
        )
      )
      (23): v10Detect(
        (cv2): ModuleList(
          (0): Sequential(
            (0): Conv(
              (conv): Conv2d(192, 64, kernel_size=(3, 3), stride=(1, 1), padding=(1, 1))
              (act): SiLU(inplace=True)
            )
            (1): Conv(
              (conv): Conv2d(64, 64, kernel_size=(3, 3), stride=(1, 1), padding=(1, 1))
              (act): SiLU(inplace=True)
            )
            (2): Conv2d(64, 64, kernel_size=(1, 1), stride=(1, 1))
          )
          (1): Sequential(
            (0): Conv(
              (conv): Conv2d(384, 64, kernel_size=(3, 3), stride=(1, 1), padding=(1, 1))
              (act): SiLU(inplace=True)
            )
            (1): Conv(
              (conv): Conv2d(64, 64, kernel_size=(3, 3), stride=(1, 1), padding=(1, 1))
              (act): SiLU(inplace=True)
            )
            (2): Conv2d(64, 64, kernel_size=(1, 1), stride=(1, 1))
          )
          (2): Sequential(
            (0): Conv(
              (conv): Conv2d(576, 64, kernel_size=(3, 3), stride=(1, 1), padding=(1, 1))
              (act): SiLU(inplace=True)
            )
            (1): Conv(
              (conv): Conv2d(64, 64, kernel_size=(3, 3), stride=(1, 1), padding=(1, 1))
              (act): SiLU(inplace=True)
            )
            (2): Conv2d(64, 64, kernel_size=(1, 1), stride=(1, 1))
          )
        )
        (cv3): ModuleList(
          (0): Sequential(
            (0): Sequential(
              (0): Conv(
                (conv): Conv2d(192, 192, kernel_size=(3, 3), stride=(1, 1), padding=(1, 1), groups=192)
                (act): SiLU(inplace=True)
              )
              (1): Conv(
                (conv): Conv2d(192, 192, kernel_size=(1, 1), stride=(1, 1))
                (act): SiLU(inplace=True)
              )
            )
            (1): Sequential(
              (0): Conv(
                (conv): Conv2d(192, 192, kernel_size=(3, 3), stride=(1, 1), padding=(1, 1), groups=192)
                (act): SiLU(inplace=True)
              )
              (1): Conv(
                (conv): Conv2d(192, 192, kernel_size=(1, 1), stride=(1, 1))
                (act): SiLU(inplace=True)
              )
            )
            (2): Conv2d(192, 2, kernel_size=(1, 1), stride=(1, 1))
          )
          (1): Sequential(
            (0): Sequential(
              (0): Conv(
                (conv): Conv2d(384, 384, kernel_size=(3, 3), stride=(1, 1), padding=(1, 1), groups=384)
                (act): SiLU(inplace=True)
              )
              (1): Conv(
                (conv): Conv2d(384, 192, kernel_size=(1, 1), stride=(1, 1))
                (act): SiLU(inplace=True)
              )
            )
            (1): Sequential(
              (0): Conv(
                (conv): Conv2d(192, 192, kernel_size=(3, 3), stride=(1, 1), padding=(1, 1), groups=192)
                (act): SiLU(inplace=True)
              )
              (1): Conv(
                (conv): Conv2d(192, 192, kernel_size=(1, 1), stride=(1, 1))
                (act): SiLU(inplace=True)
              )
            )
            (2): Conv2d(192, 2, kernel_size=(1, 1), stride=(1, 1))
          )
          (2): Sequential(
            (0): Sequential(
              (0): Conv(
                (conv): Conv2d(576, 576, kernel_size=(3, 3), stride=(1, 1), padding=(1, 1), groups=576)
                (act): SiLU(inplace=True)
              )
              (1): Conv(
                (conv): Conv2d(576, 192, kernel_size=(1, 1), stride=(1, 1))
                (act): SiLU(inplace=True)
              )
            )
            (1): Sequential(
              (0): Conv(
                (conv): Conv2d(192, 192, kernel_size=(3, 3), stride=(1, 1), padding=(1, 1), groups=192)
                (act): SiLU(inplace=True)
              )
              (1): Conv(
                (conv): Conv2d(192, 192, kernel_size=(1, 1), stride=(1, 1))
                (act): SiLU(inplace=True)
              )
            )
            (2): Conv2d(192, 2, kernel_size=(1, 1), stride=(1, 1))
          )
        )
        (dfl): DFL(
          (conv): Conv2d(16, 1, kernel_size=(1, 1), stride=(1, 1), bias=False)
        )
        (one2one_cv2): ModuleList(
          (0): Sequential(
            (0): Conv(
              (conv): Conv2d(192, 64, kernel_size=(3, 3), stride=(1, 1), padding=(1, 1))
              (act): SiLU(inplace=True)
            )
            (1): Conv(
              (conv): Conv2d(64, 64, kernel_size=(3, 3), stride=(1, 1), padding=(1, 1))
              (act): SiLU(inplace=True)
            )
            (2): Conv2d(64, 64, kernel_size=(1, 1), stride=(1, 1))
          )
          (1): Sequential(
            (0): Conv(
              (conv): Conv2d(384, 64, kernel_size=(3, 3), stride=(1, 1), padding=(1, 1))
              (act): SiLU(inplace=True)
            )
            (1): Conv(
              (conv): Conv2d(64, 64, kernel_size=(3, 3), stride=(1, 1), padding=(1, 1))
              (act): SiLU(inplace=True)
            )
            (2): Conv2d(64, 64, kernel_size=(1, 1), stride=(1, 1))
          )
          (2): Sequential(
            (0): Conv(
              (conv): Conv2d(576, 64, kernel_size=(3, 3), stride=(1, 1), padding=(1, 1))
              (act): SiLU(inplace=True)
            )
            (1): Conv(
              (conv): Conv2d(64, 64, kernel_size=(3, 3), stride=(1, 1), padding=(1, 1))
              (act): SiLU(inplace=True)
            )
            (2): Conv2d(64, 64, kernel_size=(1, 1), stride=(1, 1))
          )
        )
        (one2one_cv3): ModuleList(
          (0): Sequential(
            (0): Sequential(
              (0): Conv(
                (conv): Conv2d(192, 192, kernel_size=(3, 3), stride=(1, 1), padding=(1, 1), groups=192)
                (act): SiLU(inplace=True)
              )
              (1): Conv(
                (conv): Conv2d(192, 192, kernel_size=(1, 1), stride=(1, 1))
                (act): SiLU(inplace=True)
              )
            )
            (1): Sequential(
              (0): Conv(
                (conv): Conv2d(192, 192, kernel_size=(3, 3), stride=(1, 1), padding=(1, 1), groups=192)
                (act): SiLU(inplace=True)
              )
              (1): Conv(
                (conv): Conv2d(192, 192, kernel_size=(1, 1), stride=(1, 1))
                (act): SiLU(inplace=True)
              )
            )
            (2): Conv2d(192, 2, kernel_size=(1, 1), stride=(1, 1))
          )
          (1): Sequential(
            (0): Sequential(
              (0): Conv(
                (conv): Conv2d(384, 384, kernel_size=(3, 3), stride=(1, 1), padding=(1, 1), groups=384)
                (act): SiLU(inplace=True)
              )
              (1): Conv(
                (conv): Conv2d(384, 192, kernel_size=(1, 1), stride=(1, 1))
                (act): SiLU(inplace=True)
              )
            )
            (1): Sequential(
              (0): Conv(
                (conv): Conv2d(192, 192, kernel_size=(3, 3), stride=(1, 1), padding=(1, 1), groups=192)
                (act): SiLU(inplace=True)
              )
              (1): Conv(
                (conv): Conv2d(192, 192, kernel_size=(1, 1), stride=(1, 1))
                (act): SiLU(inplace=True)
              )
            )
            (2): Conv2d(192, 2, kernel_size=(1, 1), stride=(1, 1))
          )
          (2): Sequential(
            (0): Sequential(
              (0): Conv(
                (conv): Conv2d(576, 576, kernel_size=(3, 3), stride=(1, 1), padding=(1, 1), groups=576)
                (act): SiLU(inplace=True)
              )
              (1): Conv(
                (conv): Conv2d(576, 192, kernel_size=(1, 1), stride=(1, 1))
                (act): SiLU(inplace=True)
              )
            )
            (1): Sequential(
              (0): Conv(
                (conv): Conv2d(192, 192, kernel_size=(3, 3), stride=(1, 1), padding=(1, 1), groups=192)
                (act): SiLU(inplace=True)
              )
              (1): Conv(
                (conv): Conv2d(192, 192, kernel_size=(1, 1), stride=(1, 1))
                (act): SiLU(inplace=True)
              )
            )
            (2): Conv2d(192, 2, kernel_size=(1, 1), stride=(1, 1))
          )
        )
      )
    )
  )
) model_path='/work/ai/WHOAMI/whoami/models/detect/fire_smoke_yolov10m_v2_epochs_250.pt' class_list=[0, 1] conf=0.8 logger=<whoami.utils.log.Logger object at 0x7f654b61c910>[0m
INFO:     223.15.163.9:53187 - "POST /fire_smoke_warning HTTP/1.1" 200 OK
[32m[2024-12-21 20:31:58] [INFO    ] [SxVideoStreamDetector] - https://open.ys7.com/v3/openlive/BD3202818_1_1.m3u8?expire=1734870695&id=790677874942644224&t=10ca26b9c2dd52cad130b216bba1e7a98ab88ad4a1622b2263ff225fcedee54d&ev=100/fire/smoke/warning?烟火预警 is running![0m
…
[32m[2024-12-21 20:32:54] [INFO    ] [warning_fastapi] - topic_list: ['/fire/smoke/warning?烟火预警', '/fallen/falling/warning?跌倒预警'][0m
[32m[2024-12-21 20:32:54] [INFO    ] [warning_fastapi] - real_topic_list: [][0m
[32m[2024-12-21 20:32:54] [INFO    ] [warning_fastapi] - del_topic: [][0m
[32m[2024-12-21 20:32:54] [INFO    ] [warning_fastapi] - need to open topic list: ['/fallen/falling/warning?跌倒预警', '/fire/smoke/warning?烟火预警'][0m
[32m[2024-12-21 20:32:54] [INFO    ] [SxVideoStreamDetector] - name='UltraliticsDetector' model=YOLO(
  (model): DetectionModel(
    (model): Sequential(
      (0): Conv(
        (conv): Conv2d(3, 48, kernel_size=(3, 3), stride=(2, 2), padding=(1, 1))
        (act): SiLU(inplace=True)
      )
      (1): Conv(
        (conv): Conv2d(48, 96, kernel_size=(3, 3), stride=(2, 2), padding=(1, 1))
        (act): SiLU(inplace=True)
      )
      (2): C2f(
        (cv1): Conv(
          (conv): Conv2d(96, 96, kernel_size=(1, 1), stride=(1, 1))
          (act): SiLU(inplace=True)
        )
        (cv2): Conv(
          (conv): Conv2d(192, 96, kernel_size=(1, 1), stride=(1, 1))
          (act): SiLU(inplace=True)
        )
        (m): ModuleList(
          (0-1): 2 x Bottleneck(
            (cv1): Conv(
              (conv): Conv2d(48, 48, kernel_size=(3, 3), stride=(1, 1), padding=(1, 1))
              (act): SiLU(inplace=True)
            )
            (cv2): Conv(
              (conv): Conv2d(48, 48, kernel_size=(3, 3), stride=(1, 1), padding=(1, 1))
              (act): SiLU(inplace=True)
            )
          )
        )
      )
      (3): Conv(
        (conv): Conv2d(96, 192, kernel_size=(3, 3), stride=(2, 2), padding=(1, 1))
        (act): SiLU(inplace=True)
      )
      (4): C2f(
        (cv1): Conv(
          (conv): Conv2d(192, 192, kernel_size=(1, 1), stride=(1, 1))
          (act): SiLU(inplace=True)
        )
        (cv2): Conv(
          (conv): Conv2d(576, 192, kernel_size=(1, 1), stride=(1, 1))
          (act): SiLU(inplace=True)
        )
        (m): ModuleList(
          (0-3): 4 x Bottleneck(
            (cv1): Conv(
              (conv): Conv2d(96, 96, kernel_size=(3, 3), stride=(1, 1), padding=(1, 1))
              (act): SiLU(inplace=True)
            )
            (cv2): Conv(
              (conv): Conv2d(96, 96, kernel_size=(3, 3), stride=(1, 1), padding=(1, 1))
              (act): SiLU(inplace=True)
            )
          )
        )
      )
      (5): SCDown(
        (cv1): Conv(
          (conv): Conv2d(192, 384, kernel_size=(1, 1), stride=(1, 1))
          (act): SiLU(inplace=True)
        )
        (cv2): Conv(
          (conv): Conv2d(384, 384, kernel_size=(3, 3), stride=(2, 2), padding=(1, 1), groups=384)
          (act): Identity()
        )
      )
      (6): C2f(
        (cv1): Conv(
          (conv): Conv2d(384, 384, kernel_size=(1, 1), stride=(1, 1))
          (act): SiLU(inplace=True)
        )
        (cv2): Conv(
          (conv): Conv2d(1152, 384, kernel_size=(1, 1), stride=(1, 1))
          (act): SiLU(inplace=True)
        )
        (m): ModuleList(
          (0-3): 4 x Bottleneck(
            (cv1): Conv(
              (conv): Conv2d(192, 192, kernel_size=(3, 3), stride=(1, 1), padding=(1, 1))
              (act): SiLU(inplace=True)
            )
            (cv2): Conv(
              (conv): Conv2d(192, 192, kernel_size=(3, 3), stride=(1, 1), padding=(1, 1))
              (act): SiLU(inplace=True)
            )
          )
        )
      )
      (7): SCDown(
        (cv1): Conv(
          (conv): Conv2d(384, 576, kernel_size=(1, 1), stride=(1, 1))
          (act): SiLU(inplace=True)
        )
        (cv2): Conv(
          (conv): Conv2d(576, 576, kernel_size=(3, 3), stride=(2, 2), padding=(1, 1), groups=576)
          (act): Identity()
        )
      )
      (8): C2fCIB(
        (cv1): Conv(
          (conv): Conv2d(576, 576, kernel_size=(1, 1), stride=(1, 1))
          (act): SiLU(inplace=True)
        )
        (cv2): Conv(
          (conv): Conv2d(1152, 576, kernel_size=(1, 1), stride=(1, 1))
          (act): SiLU(inplace=True)
        )
        (m): ModuleList(
          (0-1): 2 x CIB(
            (cv1): Sequential(
              (0): Conv(
                (conv): Conv2d(288, 288, kernel_size=(3, 3), stride=(1, 1), padding=(1, 1), groups=288)
                (act): SiLU(inplace=True)
              )
              (1): Conv(
                (conv): Conv2d(288, 576, kernel_size=(1, 1), stride=(1, 1))
                (act): SiLU(inplace=True)
              )
              (2): Conv(
                (conv): Conv2d(576, 576, kernel_size=(3, 3), stride=(1, 1), padding=(1, 1), groups=576)
                (act): SiLU(inplace=True)
              )
              (3): Conv(
                (conv): Conv2d(576, 288, kernel_size=(1, 1), stride=(1, 1))
                (act): SiLU(inplace=True)
              )
              (4): Conv(
                (conv): Conv2d(288, 288, kernel_size=(3, 3), stride=(1, 1), padding=(1, 1), groups=288)
                (act): SiLU(inplace=True)
              )
            )
          )
        )
      )
      (9): SPPF(
        (cv1): Conv(
          (conv): Conv2d(576, 288, kernel_size=(1, 1), stride=(1, 1))
          (act): SiLU(inplace=True)
        )
        (cv2): Conv(
          (conv): Conv2d(1152, 576, kernel_size=(1, 1), stride=(1, 1))
          (act): SiLU(inplace=True)
        )
        (m): MaxPool2d(kernel_size=5, stride=1, padding=2, dilation=1, ceil_mode=False)
      )
      (10): PSA(
        (cv1): Conv(
          (conv): Conv2d(576, 576, kernel_size=(1, 1), stride=(1, 1))
          (act): SiLU(inplace=True)
        )
        (cv2): Conv(
          (conv): Conv2d(576, 576, kernel_size=(1, 1), stride=(1, 1))
          (act): SiLU(inplace=True)
        )
        (attn): Attention(
          (qkv): Conv(
            (conv): Conv2d(288, 576, kernel_size=(1, 1), stride=(1, 1))
            (act): Identity()
          )
          (proj): Conv(
            (conv): Conv2d(288, 288, kernel_size=(1, 1), stride=(1, 1))
            (act): Identity()
          )
          (pe): Conv(
            (conv): Conv2d(288, 288, kernel_size=(3, 3), stride=(1, 1), padding=(1, 1), groups=288)
            (act): Identity()
          )
        )
        (ffn): Sequential(
          (0): Conv(
            (conv): Conv2d(288, 576, kernel_size=(1, 1), stride=(1, 1))
            (act): SiLU(inplace=True)
          )
          (1): Conv(
            (conv): Conv2d(576, 288, kernel_size=(1, 1), stride=(1, 1))
            (act): Identity()
          )
        )
      )
      (11): Upsample(scale_factor=2.0, mode='nearest')
      (12): Concat()
      (13): C2f(
        (cv1): Conv(
          (conv): Conv2d(960, 384, kernel_size=(1, 1), stride=(1, 1))
          (act): SiLU(inplace=True)
        )
        (cv2): Conv(
          (conv): Conv2d(768, 384, kernel_size=(1, 1), stride=(1, 1))
          (act): SiLU(inplace=True)
        )
        (m): ModuleList(
          (0-1): 2 x Bottleneck(
            (cv1): Conv(
              (conv): Conv2d(192, 192, kernel_size=(3, 3), stride=(1, 1), padding=(1, 1))
              (act): SiLU(inplace=True)
            )
            (cv2): Conv(
              (conv): Conv2d(192, 192, kernel_size=(3, 3), stride=(1, 1), padding=(1, 1))
              (act): SiLU(inplace=True)
            )
          )
        )
      )
      (14): Upsample(scale_factor=2.0, mode='nearest')
      (15): Concat()
      (16): C2f(
        (cv1): Conv(
          (conv): Conv2d(576, 192, kernel_size=(1, 1), stride=(1, 1))
          (act): SiLU(inplace=True)
        )
        (cv2): Conv(
          (conv): Conv2d(384, 192, kernel_size=(1, 1), stride=(1, 1))
          (act): SiLU(inplace=True)
        )
        (m): ModuleList(
          (0-1): 2 x Bottleneck(
            (cv1): Conv(
              (conv): Conv2d(96, 96, kernel_size=(3, 3), stride=(1, 1), padding=(1, 1))
              (act): SiLU(inplace=True)
            )
            (cv2): Conv(
              (conv): Conv2d(96, 96, kernel_size=(3, 3), stride=(1, 1), padding=(1, 1))
              (act): SiLU(inplace=True)
            )
          )
        )
      )
      (17): Conv(
        (conv): Conv2d(192, 192, kernel_size=(3, 3), stride=(2, 2), padding=(1, 1))
        (act): SiLU(inplace=True)
      )
      (18): Concat()
      (19): C2fCIB(
        (cv1): Conv(
          (conv): Conv2d(576, 384, kernel_size=(1, 1), stride=(1, 1))
          (act): SiLU(inplace=True)
        )
        (cv2): Conv(
          (conv): Conv2d(768, 384, kernel_size=(1, 1), stride=(1, 1))
          (act): SiLU(inplace=True)
        )
        (m): ModuleList(
          (0-1): 2 x CIB(
            (cv1): Sequential(
              (0): Conv(
                (conv): Conv2d(192, 192, kernel_size=(3, 3), stride=(1, 1), padding=(1, 1), groups=192)
                (act): SiLU(inplace=True)
              )
              (1): Conv(
                (conv): Conv2d(192, 384, kernel_size=(1, 1), stride=(1, 1))
                (act): SiLU(inplace=True)
              )
              (2): Conv(
                (conv): Conv2d(384, 384, kernel_size=(3, 3), stride=(1, 1), padding=(1, 1), groups=384)
                (act): SiLU(inplace=True)
              )
              (3): Conv(
                (conv): Conv2d(384, 192, kernel_size=(1, 1), stride=(1, 1))
                (act): SiLU(inplace=True)
              )
              (4): Conv(
                (conv): Conv2d(192, 192, kernel_size=(3, 3), stride=(1, 1), padding=(1, 1), groups=192)
                (act): SiLU(inplace=True)
              )
            )
          )
        )
      )
      (20): SCDown(
        (cv1): Conv(
          (conv): Conv2d(384, 384, kernel_size=(1, 1), stride=(1, 1))
          (act): SiLU(inplace=True)
        )
        (cv2): Conv(
          (conv): Conv2d(384, 384, kernel_size=(3, 3), stride=(2, 2), padding=(1, 1), groups=384)
          (act): Identity()
        )
      )
      (21): Concat()
      (22): C2fCIB(
        (cv1): Conv(
          (conv): Conv2d(960, 576, kernel_size=(1, 1), stride=(1, 1))
          (act): SiLU(inplace=True)
        )
        (cv2): Conv(
          (conv): Conv2d(1152, 576, kernel_size=(1, 1), stride=(1, 1))
          (act): SiLU(inplace=True)
        )
        (m): ModuleList(
          (0-1): 2 x CIB(
            (cv1): Sequential(
              (0): Conv(
                (conv): Conv2d(288, 288, kernel_size=(3, 3), stride=(1, 1), padding=(1, 1), groups=288)
                (act): SiLU(inplace=True)
              )
              (1): Conv(
                (conv): Conv2d(288, 576, kernel_size=(1, 1), stride=(1, 1))
                (act): SiLU(inplace=True)
              )
              (2): Conv(
                (conv): Conv2d(576, 576, kernel_size=(3, 3), stride=(1, 1), padding=(1, 1), groups=576)
                (act): SiLU(inplace=True)
              )
              (3): Conv(
                (conv): Conv2d(576, 288, kernel_size=(1, 1), stride=(1, 1))
                (act): SiLU(inplace=True)
              )
              (4): Conv(
                (conv): Conv2d(288, 288, kernel_size=(3, 3), stride=(1, 1), padding=(1, 1), groups=288)
                (act): SiLU(inplace=True)
              )
            )
          )
        )
      )
      (23): v10Detect(
        (cv2): ModuleList(
          (0): Sequential(
            (0): Conv(
              (conv): Conv2d(192, 64, kernel_size=(3, 3), stride=(1, 1), padding=(1, 1))
              (act): SiLU(inplace=True)
            )
            (1): Conv(
              (conv): Conv2d(64, 64, kernel_size=(3, 3), stride=(1, 1), padding=(1, 1))
              (act): SiLU(inplace=True)
            )
            (2): Conv2d(64, 64, kernel_size=(1, 1), stride=(1, 1))
          )
          (1): Sequential(
            (0): Conv(
              (conv): Conv2d(384, 64, kernel_size=(3, 3), stride=(1, 1), padding=(1, 1))
              (act): SiLU(inplace=True)
            )
            (1): Conv(
              (conv): Conv2d(64, 64, kernel_size=(3, 3), stride=(1, 1), padding=(1, 1))
              (act): SiLU(inplace=True)
            )
            (2): Conv2d(64, 64, kernel_size=(1, 1), stride=(1, 1))
          )
          (2): Sequential(
            (0): Conv(
              (conv): Conv2d(576, 64, kernel_size=(3, 3), stride=(1, 1), padding=(1, 1))
              (act): SiLU(inplace=True)
            )
            (1): Conv(
              (conv): Conv2d(64, 64, kernel_size=(3, 3), stride=(1, 1), padding=(1, 1))
              (act): SiLU(inplace=True)
            )
            (2): Conv2d(64, 64, kernel_size=(1, 1), stride=(1, 1))
          )
        )
        (cv3): ModuleList(
          (0): Sequential(
            (0): Sequential(
              (0): Conv(
                (conv): Conv2d(192, 192, kernel_size=(3, 3), stride=(1, 1), padding=(1, 1), groups=192)
                (act): SiLU(inplace=True)
              )
              (1): Conv(
                (conv): Conv2d(192, 192, kernel_size=(1, 1), stride=(1, 1))
                (act): SiLU(inplace=True)
              )
            )
            (1): Sequential(
              (0): Conv(
                (conv): Conv2d(192, 192, kernel_size=(3, 3), stride=(1, 1), padding=(1, 1), groups=192)
                (act): SiLU(inplace=True)
              )
              (1): Conv(
                (conv): Conv2d(192, 192, kernel_size=(1, 1), stride=(1, 1))
                (act): SiLU(inplace=True)
              )
            )
            (2): Conv2d(192, 2, kernel_size=(1, 1), stride=(1, 1))
          )
          (1): Sequential(
            (0): Sequential(
              (0): Conv(
                (conv): Conv2d(384, 384, kernel_size=(3, 3), stride=(1, 1), padding=(1, 1), groups=384)
                (act): SiLU(inplace=True)
              )
              (1): Conv(
                (conv): Conv2d(384, 192, kernel_size=(1, 1), stride=(1, 1))
                (act): SiLU(inplace=True)
              )
            )
            (1): Sequential(
              (0): Conv(
                (conv): Conv2d(192, 192, kernel_size=(3, 3), stride=(1, 1), padding=(1, 1), groups=192)
                (act): SiLU(inplace=True)
              )
              (1): Conv(
                (conv): Conv2d(192, 192, kernel_size=(1, 1), stride=(1, 1))
                (act): SiLU(inplace=True)
              )
            )
            (2): Conv2d(192, 2, kernel_size=(1, 1), stride=(1, 1))
          )
          (2): Sequential(
            (0): Sequential(
              (0): Conv(
                (conv): Conv2d(576, 576, kernel_size=(3, 3), stride=(1, 1), padding=(1, 1), groups=576)
                (act): SiLU(inplace=True)
              )
              (1): Conv(
                (conv): Conv2d(576, 192, kernel_size=(1, 1), stride=(1, 1))
                (act): SiLU(inplace=True)
              )
            )
            (1): Sequential(
              (0): Conv(
                (conv): Conv2d(192, 192, kernel_size=(3, 3), stride=(1, 1), padding=(1, 1), groups=192)
                (act): SiLU(inplace=True)
              )
              (1): Conv(
                (conv): Conv2d(192, 192, kernel_size=(1, 1), stride=(1, 1))
                (act): SiLU(inplace=True)
              )
            )
            (2): Conv2d(192, 2, kernel_size=(1, 1), stride=(1, 1))
          )
        )
        (dfl): DFL(
          (conv): Conv2d(16, 1, kernel_size=(1, 1), stride=(1, 1), bias=False)
        )
        (one2one_cv2): ModuleList(
          (0): Sequential(
            (0): Conv(
              (conv): Conv2d(192, 64, kernel_size=(3, 3), stride=(1, 1), padding=(1, 1))
              (act): SiLU(inplace=True)
            )
            (1): Conv(
              (conv): Conv2d(64, 64, kernel_size=(3, 3), stride=(1, 1), padding=(1, 1))
              (act): SiLU(inplace=True)
            )
            (2): Conv2d(64, 64, kernel_size=(1, 1), stride=(1, 1))
          )
          (1): Sequential(
            (0): Conv(
              (conv): Conv2d(384, 64, kernel_size=(3, 3), stride=(1, 1), padding=(1, 1))
              (act): SiLU(inplace=True)
            )
            (1): Conv(
              (conv): Conv2d(64, 64, kernel_size=(3, 3), stride=(1, 1), padding=(1, 1))
              (act): SiLU(inplace=True)
            )
            (2): Conv2d(64, 64, kernel_size=(1, 1), stride=(1, 1))
          )
          (2): Sequential(
            (0): Conv(
              (conv): Conv2d(576, 64, kernel_size=(3, 3), stride=(1, 1), padding=(1, 1))
              (act): SiLU(inplace=True)
            )
            (1): Conv(
              (conv): Conv2d(64, 64, kernel_size=(3, 3), stride=(1, 1), padding=(1, 1))
              (act): SiLU(inplace=True)
            )
            (2): Conv2d(64, 64, kernel_size=(1, 1), stride=(1, 1))
          )
        )
        (one2one_cv3): ModuleList(
          (0): Sequential(
            (0): Sequential(
              (0): Conv(
                (conv): Conv2d(192, 192, kernel_size=(3, 3), stride=(1, 1), padding=(1, 1), groups=192)
                (act): SiLU(inplace=True)
              )
              (1): Conv(
                (conv): Conv2d(192, 192, kernel_size=(1, 1), stride=(1, 1))
                (act): SiLU(inplace=True)
              )
            )
            (1): Sequential(
              (0): Conv(
                (conv): Conv2d(192, 192, kernel_size=(3, 3), stride=(1, 1), padding=(1, 1), groups=192)
                (act): SiLU(inplace=True)
              )
              (1): Conv(
                (conv): Conv2d(192, 192, kernel_size=(1, 1), stride=(1, 1))
                (act): SiLU(inplace=True)
              )
            )
            (2): Conv2d(192, 2, kernel_size=(1, 1), stride=(1, 1))
          )
          (1): Sequential(
            (0): Sequential(
              (0): Conv(
                (conv): Conv2d(384, 384, kernel_size=(3, 3), stride=(1, 1), padding=(1, 1), groups=384)
                (act): SiLU(inplace=True)
              )
              (1): Conv(
                (conv): Conv2d(384, 192, kernel_size=(1, 1), stride=(1, 1))
                (act): SiLU(inplace=True)
              )
            )
            (1): Sequential(
              (0): Conv(
                (conv): Conv2d(192, 192, kernel_size=(3, 3), stride=(1, 1), padding=(1, 1), groups=192)
                (act): SiLU(inplace=True)
              )
              (1): Conv(
                (conv): Conv2d(192, 192, kernel_size=(1, 1), stride=(1, 1))
                (act): SiLU(inplace=True)
              )
            )
            (2): Conv2d(192, 2, kernel_size=(1, 1), stride=(1, 1))
          )
          (2): Sequential(
            (0): Sequential(
              (0): Conv(
                (conv): Conv2d(576, 576, kernel_size=(3, 3), stride=(1, 1), padding=(1, 1), groups=576)
                (act): SiLU(inplace=True)
              )
              (1): Conv(
                (conv): Conv2d(576, 192, kernel_size=(1, 1), stride=(1, 1))
                (act): SiLU(inplace=True)
              )
            )
            (1): Sequential(
              (0): Conv(
                (conv): Conv2d(192, 192, kernel_size=(3, 3), stride=(1, 1), padding=(1, 1), groups=192)
                (act): SiLU(inplace=True)
              )
              (1): Conv(
                (conv): Conv2d(192, 192, kernel_size=(1, 1), stride=(1, 1))
                (act): SiLU(inplace=True)
              )
            )
            (2): Conv2d(192, 2, kernel_size=(1, 1), stride=(1, 1))
          )
        )
      )
    )
  )
) model_path='/work/ai/WHOAMI/whoami/models/detect/fire_smoke_yolov10m_v2_epochs_250.pt' class_list=[0, 1] conf=0.8 logger=<whoami.utils.log.Logger object at 0x7f654b61c910>[0m
INFO:     223.15.163.9:53238 - "POST /fire_smoke_warning HTTP/1.1" 200 OK
[32m[2024-12-21 20:32:54] [INFO    ] [SxVideoStreamDetector] - name='UltraliticsDetector' model=YOLO(
  (model): DetectionModel(
    (model): Sequential(
      (0): Conv(
        (conv): Conv2d(3, 48, kernel_size=(3, 3), stride=(2, 2), padding=(1, 1))
        (act): SiLU(inplace=True)
      )
      (1): Conv(
        (conv): Conv2d(48, 96, kernel_size=(3, 3), stride=(2, 2), padding=(1, 1))
        (act): SiLU(inplace=True)
      )
      (2): C2f(
        (cv1): Conv(
          (conv): Conv2d(96, 96, kernel_size=(1, 1), stride=(1, 1))
          (act): SiLU(inplace=True)
        )
        (cv2): Conv(
          (conv): Conv2d(192, 96, kernel_size=(1, 1), stride=(1, 1))
          (act): SiLU(inplace=True)
        )
        (m): ModuleList(
          (0-1): 2 x Bottleneck(
            (cv1): Conv(
              (conv): Conv2d(48, 48, kernel_size=(3, 3), stride=(1, 1), padding=(1, 1))
              (act): SiLU(inplace=True)
            )
            (cv2): Conv(
              (conv): Conv2d(48, 48, kernel_size=(3, 3), stride=(1, 1), padding=(1, 1))
              (act): SiLU(inplace=True)
            )
          )
        )
      )
      (3): Conv(
        (conv): Conv2d(96, 192, kernel_size=(3, 3), stride=(2, 2), padding=(1, 1))
        (act): SiLU(inplace=True)
      )
      (4): C2f(
        (cv1): Conv(
          (conv): Conv2d(192, 192, kernel_size=(1, 1), stride=(1, 1))
          (act): SiLU(inplace=True)
        )
        (cv2): Conv(
          (conv): Conv2d(576, 192, kernel_size=(1, 1), stride=(1, 1))
          (act): SiLU(inplace=True)
        )
        (m): ModuleList(
          (0-3): 4 x Bottleneck(
            (cv1): Conv(
              (conv): Conv2d(96, 96, kernel_size=(3, 3), stride=(1, 1), padding=(1, 1))
              (act): SiLU(inplace=True)
            )
            (cv2): Conv(
              (conv): Conv2d(96, 96, kernel_size=(3, 3), stride=(1, 1), padding=(1, 1))
              (act): SiLU(inplace=True)
            )
          )
        )
      )
      (5): SCDown(
        (cv1): Conv(
          (conv): Conv2d(192, 384, kernel_size=(1, 1), stride=(1, 1))
          (act): SiLU(inplace=True)
        )
        (cv2): Conv(
          (conv): Conv2d(384, 384, kernel_size=(3, 3), stride=(2, 2), padding=(1, 1), groups=384)
          (act): Identity()
        )
      )
      (6): C2f(
        (cv1): Conv(
          (conv): Conv2d(384, 384, kernel_size=(1, 1), stride=(1, 1))
          (act): SiLU(inplace=True)
        )
        (cv2): Conv(
          (conv): Conv2d(1152, 384, kernel_size=(1, 1), stride=(1, 1))
          (act): SiLU(inplace=True)
        )
        (m): ModuleList(
          (0-3): 4 x Bottleneck(
            (cv1): Conv(
              (conv): Conv2d(192, 192, kernel_size=(3, 3), stride=(1, 1), padding=(1, 1))
              (act): SiLU(inplace=True)
            )
            (cv2): Conv(
              (conv): Conv2d(192, 192, kernel_size=(3, 3), stride=(1, 1), padding=(1, 1))
              (act): SiLU(inplace=True)
            )
          )
        )
      )
      (7): SCDown(
        (cv1): Conv(
          (conv): Conv2d(384, 576, kernel_size=(1, 1), stride=(1, 1))
          (act): SiLU(inplace=True)
        )
        (cv2): Conv(
          (conv): Conv2d(576, 576, kernel_size=(3, 3), stride=(2, 2), padding=(1, 1), groups=576)
          (act): Identity()
        )
      )
      (8): C2fCIB(
        (cv1): Conv(
          (conv): Conv2d(576, 576, kernel_size=(1, 1), stride=(1, 1))
          (act): SiLU(inplace=True)
        )
        (cv2): Conv(
          (conv): Conv2d(1152, 576, kernel_size=(1, 1), stride=(1, 1))
          (act): SiLU(inplace=True)
        )
        (m): ModuleList(
          (0-1): 2 x CIB(
            (cv1): Sequential(
              (0): Conv(
                (conv): Conv2d(288, 288, kernel_size=(3, 3), stride=(1, 1), padding=(1, 1), groups=288)
                (act): SiLU(inplace=True)
              )
              (1): Conv(
                (conv): Conv2d(288, 576, kernel_size=(1, 1), stride=(1, 1))
                (act): SiLU(inplace=True)
              )
              (2): Conv(
                (conv): Conv2d(576, 576, kernel_size=(3, 3), stride=(1, 1), padding=(1, 1), groups=576)
                (act): SiLU(inplace=True)
              )
              (3): Conv(
                (conv): Conv2d(576, 288, kernel_size=(1, 1), stride=(1, 1))
                (act): SiLU(inplace=True)
              )
              (4): Conv(
                (conv): Conv2d(288, 288, kernel_size=(3, 3), stride=(1, 1), padding=(1, 1), groups=288)
                (act): SiLU(inplace=True)
              )
            )
          )
        )
      )
      (9): SPPF(
        (cv1): Conv(
          (conv): Conv2d(576, 288, kernel_size=(1, 1), stride=(1, 1))
          (act): SiLU(inplace=True)
        )
        (cv2): Conv(
          (conv): Conv2d(1152, 576, kernel_size=(1, 1), stride=(1, 1))
          (act): SiLU(inplace=True)
        )
        (m): MaxPool2d(kernel_size=5, stride=1, padding=2, dilation=1, ceil_mode=False)
      )
      (10): PSA(
        (cv1): Conv(
          (conv): Conv2d(576, 576, kernel_size=(1, 1), stride=(1, 1))
          (act): SiLU(inplace=True)
        )
        (cv2): Conv(
          (conv): Conv2d(576, 576, kernel_size=(1, 1), stride=(1, 1))
          (act): SiLU(inplace=True)
        )
        (attn): Attention(
          (qkv): Conv(
            (conv): Conv2d(288, 576, kernel_size=(1, 1), stride=(1, 1))
            (act): Identity()
          )
          (proj): Conv(
            (conv): Conv2d(288, 288, kernel_size=(1, 1), stride=(1, 1))
            (act): Identity()
          )
          (pe): Conv(
            (conv): Conv2d(288, 288, kernel_size=(3, 3), stride=(1, 1), padding=(1, 1), groups=288)
            (act): Identity()
          )
        )
        (ffn): Sequential(
          (0): Conv(
            (conv): Conv2d(288, 576, kernel_size=(1, 1), stride=(1, 1))
            (act): SiLU(inplace=True)
          )
          (1): Conv(
            (conv): Conv2d(576, 288, kernel_size=(1, 1), stride=(1, 1))
            (act): Identity()
          )
        )
      )
      (11): Upsample(scale_factor=2.0, mode='nearest')
      (12): Concat()
      (13): C2f(
        (cv1): Conv(
          (conv): Conv2d(960, 384, kernel_size=(1, 1), stride=(1, 1))
          (act): SiLU(inplace=True)
        )
        (cv2): Conv(
          (conv): Conv2d(768, 384, kernel_size=(1, 1), stride=(1, 1))
          (act): SiLU(inplace=True)
        )
        (m): ModuleList(
          (0-1): 2 x Bottleneck(
            (cv1): Conv(
              (conv): Conv2d(192, 192, kernel_size=(3, 3), stride=(1, 1), padding=(1, 1))
              (act): SiLU(inplace=True)
            )
            (cv2): Conv(
              (conv): Conv2d(192, 192, kernel_size=(3, 3), stride=(1, 1), padding=(1, 1))
              (act): SiLU(inplace=True)
            )
          )
        )
      )
      (14): Upsample(scale_factor=2.0, mode='nearest')
      (15): Concat()
      (16): C2f(
        (cv1): Conv(
          (conv): Conv2d(576, 192, kernel_size=(1, 1), stride=(1, 1))
          (act): SiLU(inplace=True)
        )
        (cv2): Conv(
          (conv): Conv2d(384, 192, kernel_size=(1, 1), stride=(1, 1))
          (act): SiLU(inplace=True)
        )
        (m): ModuleList(
          (0-1): 2 x Bottleneck(
            (cv1): Conv(
              (conv): Conv2d(96, 96, kernel_size=(3, 3), stride=(1, 1), padding=(1, 1))
              (act): SiLU(inplace=True)
            )
            (cv2): Conv(
              (conv): Conv2d(96, 96, kernel_size=(3, 3), stride=(1, 1), padding=(1, 1))
              (act): SiLU(inplace=True)
            )
          )
        )
      )
      (17): Conv(
        (conv): Conv2d(192, 192, kernel_size=(3, 3), stride=(2, 2), padding=(1, 1))
        (act): SiLU(inplace=True)
      )
      (18): Concat()
      (19): C2fCIB(
        (cv1): Conv(
          (conv): Conv2d(576, 384, kernel_size=(1, 1), stride=(1, 1))
          (act): SiLU(inplace=True)
        )
        (cv2): Conv(
          (conv): Conv2d(768, 384, kernel_size=(1, 1), stride=(1, 1))
          (act): SiLU(inplace=True)
        )
        (m): ModuleList(
          (0-1): 2 x CIB(
            (cv1): Sequential(
              (0): Conv(
                (conv): Conv2d(192, 192, kernel_size=(3, 3), stride=(1, 1), padding=(1, 1), groups=192)
                (act): SiLU(inplace=True)
              )
              (1): Conv(
                (conv): Conv2d(192, 384, kernel_size=(1, 1), stride=(1, 1))
                (act): SiLU(inplace=True)
              )
              (2): Conv(
                (conv): Conv2d(384, 384, kernel_size=(3, 3), stride=(1, 1), padding=(1, 1), groups=384)
                (act): SiLU(inplace=True)
              )
              (3): Conv(
                (conv): Conv2d(384, 192, kernel_size=(1, 1), stride=(1, 1))
                (act): SiLU(inplace=True)
              )
              (4): Conv(
                (conv): Conv2d(192, 192, kernel_size=(3, 3), stride=(1, 1), padding=(1, 1), groups=192)
                (act): SiLU(inplace=True)
              )
            )
          )
        )
      )
      (20): SCDown(
        (cv1): Conv(
          (conv): Conv2d(384, 384, kernel_size=(1, 1), stride=(1, 1))
          (act): SiLU(inplace=True)
        )
        (cv2): Conv(
          (conv): Conv2d(384, 384, kernel_size=(3, 3), stride=(2, 2), padding=(1, 1), groups=384)
          (act): Identity()
        )
      )
      (21): Concat()
      (22): C2fCIB(
        (cv1): Conv(
          (conv): Conv2d(960, 576, kernel_size=(1, 1), stride=(1, 1))
          (act): SiLU(inplace=True)
        )
        (cv2): Conv(
          (conv): Conv2d(1152, 576, kernel_size=(1, 1), stride=(1, 1))
          (act): SiLU(inplace=True)
        )
        (m): ModuleList(
          (0-1): 2 x CIB(
            (cv1): Sequential(
              (0): Conv(
                (conv): Conv2d(288, 288, kernel_size=(3, 3), stride=(1, 1), padding=(1, 1), groups=288)
                (act): SiLU(inplace=True)
              )
              (1): Conv(
                (conv): Conv2d(288, 576, kernel_size=(1, 1), stride=(1, 1))
                (act): SiLU(inplace=True)
              )
              (2): Conv(
                (conv): Conv2d(576, 576, kernel_size=(3, 3), stride=(1, 1), padding=(1, 1), groups=576)
                (act): SiLU(inplace=True)
              )
              (3): Conv(
                (conv): Conv2d(576, 288, kernel_size=(1, 1), stride=(1, 1))
                (act): SiLU(inplace=True)
              )
              (4): Conv(
                (conv): Conv2d(288, 288, kernel_size=(3, 3), stride=(1, 1), padding=(1, 1), groups=288)
                (act): SiLU(inplace=True)
              )
            )
          )
        )
      )
      (23): v10Detect(
        (cv2): ModuleList(
          (0): Sequential(
            (0): Conv(
              (conv): Conv2d(192, 64, kernel_size=(3, 3), stride=(1, 1), padding=(1, 1))
              (act): SiLU(inplace=True)
            )
            (1): Conv(
              (conv): Conv2d(64, 64, kernel_size=(3, 3), stride=(1, 1), padding=(1, 1))
              (act): SiLU(inplace=True)
            )
            (2): Conv2d(64, 64, kernel_size=(1, 1), stride=(1, 1))
          )
          (1): Sequential(
            (0): Conv(
              (conv): Conv2d(384, 64, kernel_size=(3, 3), stride=(1, 1), padding=(1, 1))
              (act): SiLU(inplace=True)
            )
            (1): Conv(
              (conv): Conv2d(64, 64, kernel_size=(3, 3), stride=(1, 1), padding=(1, 1))
              (act): SiLU(inplace=True)
            )
            (2): Conv2d(64, 64, kernel_size=(1, 1), stride=(1, 1))
          )
          (2): Sequential(
            (0): Conv(
              (conv): Conv2d(576, 64, kernel_size=(3, 3), stride=(1, 1), padding=(1, 1))
              (act): SiLU(inplace=True)
            )
            (1): Conv(
              (conv): Conv2d(64, 64, kernel_size=(3, 3), stride=(1, 1), padding=(1, 1))
              (act): SiLU(inplace=True)
            )
            (2): Conv2d(64, 64, kernel_size=(1, 1), stride=(1, 1))
          )
        )
        (cv3): ModuleList(
          (0): Sequential(
            (0): Sequential(
              (0): Conv(
                (conv): Conv2d(192, 192, kernel_size=(3, 3), stride=(1, 1), padding=(1, 1), groups=192)
                (act): SiLU(inplace=True)
              )
              (1): Conv(
                (conv): Conv2d(192, 192, kernel_size=(1, 1), stride=(1, 1))
                (act): SiLU(inplace=True)
              )
            )
            (1): Sequential(
              (0): Conv(
                (conv): Conv2d(192, 192, kernel_size=(3, 3), stride=(1, 1), padding=(1, 1), groups=192)
                (act): SiLU(inplace=True)
              )
              (1): Conv(
                (conv): Conv2d(192, 192, kernel_size=(1, 1), stride=(1, 1))
                (act): SiLU(inplace=True)
              )
            )
            (2): Conv2d(192, 2, kernel_size=(1, 1), stride=(1, 1))
          )
          (1): Sequential(
            (0): Sequential(
              (0): Conv(
                (conv): Conv2d(384, 384, kernel_size=(3, 3), stride=(1, 1), padding=(1, 1), groups=384)
                (act): SiLU(inplace=True)
              )
              (1): Conv(
                (conv): Conv2d(384, 192, kernel_size=(1, 1), stride=(1, 1))
                (act): SiLU(inplace=True)
              )
            )
            (1): Sequential(
              (0): Conv(
                (conv): Conv2d(192, 192, kernel_size=(3, 3), stride=(1, 1), padding=(1, 1), groups=192)
                (act): SiLU(inplace=True)
              )
              (1): Conv(
                (conv): Conv2d(192, 192, kernel_size=(1, 1), stride=(1, 1))
                (act): SiLU(inplace=True)
              )
            )
            (2): Conv2d(192, 2, kernel_size=(1, 1), stride=(1, 1))
          )
          (2): Sequential(
            (0): Sequential(
              (0): Conv(
                (conv): Conv2d(576, 576, kernel_size=(3, 3), stride=(1, 1), padding=(1, 1), groups=576)
                (act): SiLU(inplace=True)
              )
              (1): Conv(
                (conv): Conv2d(576, 192, kernel_size=(1, 1), stride=(1, 1))
                (act): SiLU(inplace=True)
              )
            )
            (1): Sequential(
              (0): Conv(
                (conv): Conv2d(192, 192, kernel_size=(3, 3), stride=(1, 1), padding=(1, 1), groups=192)
                (act): SiLU(inplace=True)
              )
              (1): Conv(
                (conv): Conv2d(192, 192, kernel_size=(1, 1), stride=(1, 1))
                (act): SiLU(inplace=True)
              )
            )
            (2): Conv2d(192, 2, kernel_size=(1, 1), stride=(1, 1))
          )
        )
        (dfl): DFL(
          (conv): Conv2d(16, 1, kernel_size=(1, 1), stride=(1, 1), bias=False)
        )
        (one2one_cv2): ModuleList(
          (0): Sequential(
            (0): Conv(
              (conv): Conv2d(192, 64, kernel_size=(3, 3), stride=(1, 1), padding=(1, 1))
              (act): SiLU(inplace=True)
            )
            (1): Conv(
              (conv): Conv2d(64, 64, kernel_size=(3, 3), stride=(1, 1), padding=(1, 1))
              (act): SiLU(inplace=True)
            )
            (2): Conv2d(64, 64, kernel_size=(1, 1), stride=(1, 1))
          )
          (1): Sequential(
            (0): Conv(
              (conv): Conv2d(384, 64, kernel_size=(3, 3), stride=(1, 1), padding=(1, 1))
              (act): SiLU(inplace=True)
            )
            (1): Conv(
              (conv): Conv2d(64, 64, kernel_size=(3, 3), stride=(1, 1), padding=(1, 1))
              (act): SiLU(inplace=True)
            )
            (2): Conv2d(64, 64, kernel_size=(1, 1), stride=(1, 1))
          )
          (2): Sequential(
            (0): Conv(
              (conv): Conv2d(576, 64, kernel_size=(3, 3), stride=(1, 1), padding=(1, 1))
              (act): SiLU(inplace=True)
            )
            (1): Conv(
              (conv): Conv2d(64, 64, kernel_size=(3, 3), stride=(1, 1), padding=(1, 1))
              (act): SiLU(inplace=True)
            )
            (2): Conv2d(64, 64, kernel_size=(1, 1), stride=(1, 1))
          )
        )
        (one2one_cv3): ModuleList(
          (0): Sequential(
            (0): Sequential(
              (0): Conv(
                (conv): Conv2d(192, 192, kernel_size=(3, 3), stride=(1, 1), padding=(1, 1), groups=192)
                (act): SiLU(inplace=True)
              )
              (1): Conv(
                (conv): Conv2d(192, 192, kernel_size=(1, 1), stride=(1, 1))
                (act): SiLU(inplace=True)
              )
            )
            (1): Sequential(
              (0): Conv(
                (conv): Conv2d(192, 192, kernel_size=(3, 3), stride=(1, 1), padding=(1, 1), groups=192)
                (act): SiLU(inplace=True)
              )
              (1): Conv(
                (conv): Conv2d(192, 192, kernel_size=(1, 1), stride=(1, 1))
                (act): SiLU(inplace=True)
              )
            )
            (2): Conv2d(192, 2, kernel_size=(1, 1), stride=(1, 1))
          )
          (1): Sequential(
            (0): Sequential(
              (0): Conv(
                (conv): Conv2d(384, 384, kernel_size=(3, 3), stride=(1, 1), padding=(1, 1), groups=384)
                (act): SiLU(inplace=True)
              )
              (1): Conv(
                (conv): Conv2d(384, 192, kernel_size=(1, 1), stride=(1, 1))
                (act): SiLU(inplace=True)
              )
            )
            (1): Sequential(
              (0): Conv(
                (conv): Conv2d(192, 192, kernel_size=(3, 3), stride=(1, 1), padding=(1, 1), groups=192)
                (act): SiLU(inplace=True)
              )
              (1): Conv(
                (conv): Conv2d(192, 192, kernel_size=(1, 1), stride=(1, 1))
                (act): SiLU(inplace=True)
              )
            )
            (2): Conv2d(192, 2, kernel_size=(1, 1), stride=(1, 1))
          )
          (2): Sequential(
            (0): Sequential(
              (0): Conv(
                (conv): Conv2d(576, 576, kernel_size=(3, 3), stride=(1, 1), padding=(1, 1), groups=576)
                (act): SiLU(inplace=True)
              )
              (1): Conv(
                (conv): Conv2d(576, 192, kernel_size=(1, 1), stride=(1, 1))
                (act): SiLU(inplace=True)
              )
            )
            (1): Sequential(
              (0): Conv(
                (conv): Conv2d(192, 192, kernel_size=(3, 3), stride=(1, 1), padding=(1, 1), groups=192)
                (act): SiLU(inplace=True)
              )
              (1): Conv(
                (conv): Conv2d(192, 192, kernel_size=(1, 1), stride=(1, 1))
                (act): SiLU(inplace=True)
              )
            )
            (2): Conv2d(192, 2, kernel_size=(1, 1), stride=(1, 1))
          )
        )
      )
    )
  )
) model_path='/work/ai/WHOAMI/whoami/models/detect/fire_smoke_yolov10m_v2_epochs_250.pt' class_list=[0, 1] conf=0.8 logger=<whoami.utils.log.Logger object at 0x7f654b61c910>[0m
[32m[2024-12-21 20:32:55] [INFO    ] [SxVideoStreamDetector] - https://open.ys7.com/v3/openlive/BD3202818_1_1.m3u8?expire=1734870695&id=790677874942644224&t=10ca26b9c2dd52cad130b216bba1e7a98ab88ad4a1622b2263ff225fcedee54d&ev=100/fire/smoke/warning?烟火预警 is running![0m
…
